RepNet/app/src/main/assets/repnet.tflite (tflite, 218380 bytes, 8 tensors)

arith.constant f4 [108]
000000 47 00 1a ba d8 1d 73 ba 29 c4 86 ba fc ee ed b9
       -0.0005874675 -0.00092741614 -0.0010281849 -0.0004538222
000010 e2 8f ce b8 86 7b 8c b9 b8 38 05 3a c3 ff 3e 3a
       -9.849646e-05 -0.00026794913 0.0005081999 0.0007286036
000020 3a 3d 59 3a a5 16 62 3a 4f b9 2b 3a 74 52 93 39
       0.00082870165 0.000862459 0.00065507455 0.00028099457
000030 02 df 10 39 0d 76 5c 3a c9 65 90 3a 7d e3 85 3a
       0.00013815987 0.0008409925 0.0011016662 0.0010214892
000040 00 a5 dc 39 96 5a 0f b9 10 86 80 ba fa 66 1c ba
       0.00042084605 -0.00013671289 -0.0009805579 -0.00059662724
000050 c0 8d 59 b8 3c 0b 45 3a 7b db e3 39 c6 e1 8c b9
       -5.1868847e-05 0.00075166277 0.0004346034 -0.00026871095
000060 76 b1 35 ba 14 58 28 ba 76 12 58 b9 b9 c1 98 3a
       -0.0006931046 -0.0006421816 -0.00020606242 0.0011654414
000070 2c fd b1 3a 8e 74 3a 3a 0c 03 2f ba 1a e2 85 ba
       0.001357948 0.0007112705 -0.0006676174 -0.0010214478
000080 3d 9e 5f ba 82 54 d7 39 da 02 68 3a fd f3 0e 3a
       -0.0008530354 0.0004107096 0.00088505226 0.0005453227
000090 f5 92 13 ba b8 67 74 ba 29 0d 88 ba 3a b5 fc b9
       -0.0005629503 -0.00093233166 -0.0010379899 -0.0004820021
0000a0 d4 d0 b5 b8 f2 33 6f b9 0a 4e cf 39 8e 37 1a 3a
       -8.66965e-05 -0.00022812167 0.0003954026 0.0005882912
0000b0 14 60 2d 3a 8e 0b 31 3a 1b 7e f3 39 2e 74 1b 39
       0.0006613743 0.0006753736 0.00046442528 0.00014825232
0000c0 c8 2e e6 37 2a ba 3b 3a 74 bb 6f 3a fe bc 5a 3a
       2.743992e-05 0.00071612245 0.0009145059 0.0008344202
0000d0 f4 42 9b 39 0d cc 5c b9 32 77 87 ba 4d 3a 2d ba
       0.00029613788 -0.0002105685 -0.0010335206 -0.0006608114
0000e0 46 2e fc b8 42 5f 2e 3a 85 b1 d5 39 3e 4a 97 b9
       -0.000120249155 0.0006651768 0.00040758788 -0.0002885628
0000f0 b6 3c 34 ba a1 38 29 ba 83 3a 66 b9 e1 78 96 3a
       -0.0006875502 -0.0006455277 -0.00021956307 0.0011480117
000100 3a 6a af 3a 54 1c 3a 3a ee 2e 34 ba 0c 30 84 ba
       0.0013383098 0.0007099558 -0.0006873448 -0.001008512
000110 d3 08 57 ba 13 a4 eb 39 75 34 82 3a 4f 57 2e 3a
       -0.0008202914 0.00044944938 0.0009933846 0.0006650583
000120 92 fd 7c ba 86 57 92 ba 3b a3 b3 ba c4 16 7e ba
       -0.0009650822 -0.0011165 -0.0013705263 -0.00096927234
000130 dc ce 16 ba ce b6 24 ba 76 e1 12 b9 46 2d 4e 39
       -0.00057528703 -0.00062833435 -0.00014007636 0.00019662557
000140 b2 2c 36 39 88 3a 00 39 8a b6 a0 b8 20 70 d0 b9
       0.00017373523 0.00012228836 -7.663395e-05 -0.0003975639
000150 e8 96 ec b9 47 28 a4 39 ac ee dd 39 4d 3f 8e 39
       -0.00045125862 0.00031310527 0.0004233023 0.00027131513
000160 93 54 8d b9 c4 a8 42 ba 6e 2c aa ba b1 b1 4a ba
       -0.00026956628 -0.0007425661 -0.0012983212 -0.00077321666
000170 d6 23 d4 b9 90 86 7d 39 c0 7d 75 37 e5 0b 1a ba
       -0.0004046249 0.00024178089 1.4632416e-05 -0.0005876406
000180 cb 74 43 ba b8 ca 09 ba 0e 51 95 b9 21 2a 66 3a
       -0.0007456063 -0.00052563427 -0.00028479885 0.00087800814
000190 bc 83 87 3a a4 9c 0b 3a 58 5e 5b ba 06 98 80 ba
       0.0010338943 0.00053257705 -0.00083682453 -0.0009810932
0001a0 0d 40 74 ba f8 84 21 39 1d 8d 10 3a 44 bd 99 39
       -0.00093174056 0.00015403691 0.00055141916 0.00029323448

arith.constant1 f4 [32]
000000 81 10 2e bf 3a 44 2c bf 04 37 47 bf 0c e8 36 c0
       -0.6799393 -0.67291605 -0.7781832 -2.857913
000010 20 08 9f be 4c ea b1 bf 38 e4 80 bf 32 f3 48 bf
       -0.31060886 -1.3899627 -1.0069647 -0.78496087
000020 94 16 a2 bf ca 48 0f c0 3e c7 95 be b9 69 86 bf
       -1.266314 -2.2388177 -0.29253572 -1.0501014
000030 79 6c 40 bf 2b 2b 0e 40 34 53 95 bf 46 52 98 be
       -0.75165516 2.2213848 -1.1666017 -0.2975027
000040 32 a1 1b bf 51 bb 0f bf 30 e1 66 bf 8f 69 12 be
       -0.6079284 -0.561452 -0.9018736 -0.1429808
000050 25 05 4d bf 9f fa 8a be 28 5c e2 3c 7a 6e 43 bf
       -0.80085975 -0.27144334 0.027631834 -0.7634045
000060 fe d1 3d bf 80 4d 5c bd 04 c9 4b bf 18 74 0f bf
       -0.7414855 -0.053784847 -0.796036 -0.5603652
000070 ff 4f 37 bf b5 90 1c bf 62 79 01 c0 2d 6b 26 c0
       -0.7160644 -0.61158305 -2.0230336 -2.6002915

arith.constant2 f4 [32]
000000 1b 3a 06 c0 4a fd 3e c0 68 a5 12 c0 a0 fb 39 c0
       -2.0972965 -2.9842095 -2.2913456 -2.905983
000010 1c 94 75 3e 24 d1 16 3f 18 b9 6a c0 9a c7 20 bf
       0.2398228 0.58912873 -3.6675472 -0.6280457
000020 ff fc 59 3f b2 72 b0 bf 5e 15 58 be b6 66 f7 be
       0.85151666 -1.3785002 -0.21101901 -0.4832055
000030 4c 0f ad bf e2 81 ac be 88 d2 1c bf 0e 84 9c bf
       -1.3520293 -0.33692843 -0.61258745 -1.22278
000040 a0 d3 2e c0 10 da 98 bf 53 a0 ce bf 8a 92 64 bf
       -2.7316666 -1.1941547 -1.6142677 -0.892861
000050 0c 24 28 bf 71 5d 9e bf d0 b1 14 bf 94 7b b0 3d
       -0.65680003 -1.2372266 -0.5808382 0.08617321
000060 42 3c 19 be 56 c1 78 40 e6 f8 88 bf 9c b3 a4 bf
       -0.14964393 3.8868003 -1.0700958 -1.2867312
000070 f8 21 59 be c1 52 b0 bf 35 0b 13 c0 a4 82 b4 3f
       -0.21204364 -1.3775254 -2.297559 1.4102368

arith.constant3 f4 [32]
000000 df fc 60 bf 4c b5 f4 be e0 83 18 3f 61 73 39 bf
       -0.8788585 -0.4779457 0.59576225 -0.7244168
000010 4b a6 68 bf 4e 1f 6b 40 df 3c 94 bf 88 81 08 40
       -0.9087874 3.6737857 -1.1581076 2.132906
000020 ea c8 c8 be 71 5e 3b bf a6 ec 90 bf a9 1a 8f 40
       -0.39215785 -0.7319098 -1.1322219 4.4720044
000030 a2 9a a6 be eb 39 8f 40 ab 01 bb 3f 57 10 a1 3e
       -0.3253985 4.47582 1.4609884 0.3145778
000040 d7 55 f0 be d2 bb 43 3f ce 15 6f bf 17 ab 33 bf
       -0.4694049 0.76458466 -0.93392646 -0.7018294
000050 21 19 26 be da 8d 1b bf 06 03 02 3f 71 2f 0d c1
       -0.16220523 -0.60763323 0.50785863 -8.824082
000060 d4 62 14 c1 b2 2d 4e c0 57 5a 41 be 26 6e 1b c1
       -9.274128 -3.221539 -0.18882118 -9.714392
000070 bc 23 60 40 70 99 44 40 aa 2f 66 3e 8b 82 89 3f
       3.502181 3.071865 0.2247912 1.0742964

arith.constant4 f4 [108, 3, 3, 32]
000000 ca 7d 87 39 a4 dc 91 b9 a9 82 78 bb 50 3c c5 3b
       0.00025842927 -0.00027820945 -0.0037919676 0.0060191527
000010 7a 01 3a bb c7 96 b5 b9 eb 7e 26 3b 5f 94 32 ba
       -0.0028382228 -0.00034635348 0.002540524 -0.000681227
000020 88 bb a8 b8 a0 8b 3d 3a 30 44 5b bb d8 cf c8 3a
       -8.045795e-05 0.00072305836 -0.003345739 0.0015320731
000030 3e d6 60 3b 4f a2 ab 3a 2f 22 95 ba 8d 21 ac 3a
       0.0034307386 0.0013094636 -0.0011377985 0.0013132558
000040 d0 c1 b3 3a c2 27 b6 3a 27 bb 48 ba d4 c8 28 bb
       0.0013714377 0.0013897347 -0.00076572824 -0.0025754469
000050 4b 41 61 3a 40 bf 24 38 c9 09 04 bb 53 ae 4c 3b
       0.0008592798 3.9278762e-05 -0.0020147434 0.0031231835
000060 b8 92 82 3a 1d 2c 00 3a 0f fd a4 3b 55 62 8a bb
       0.0009961938 0.0004889386 0.0050350497 -0.004223148
000070 d6 58 5c 3a 4f bf 04 ba 06 f9 0c ba d9 75 b9 bb
       0.00084055716 -0.00050639076 -0.00053776836 -0.0056598005
000080 20 e0 4d ba 85 09 ca bb 2d da ca 39 0b e3 84 bb
       -0.00078535266 -0.0061656856 0.00038690996 -0.004055386
000090 c0 01 a7 3b 20 79 3c 3b aa 34 96 b9 33 3e 7a 38
       0.005096644 0.002875872 -0.00028649467 5.9662572e-05
0000a0 fc ee 3c bc 5e ba 01 ba aa d8 23 bb 8c 66 f3 b9
       -0.011531588 -0.00049487303 -0.0025000968 -0.00046424975
0000b0 1d 9b 91 3a 52 46 83 ba ec 1e fd ba 7e 76 60 3b
       0.001110885 -0.0010015464 -0.0019311584 0.0034250314
0000c0 31 92 23 ba 10 c8 3d 3c 17 0d 8d 3a 08 bd 92 ba
       -0.0006239741 0.011583343 0.0010761347 -0.0011195252
0000d0 14 ec 20 3c bf 39 8e bb 00 bb 31 3b 9f cb f7 3b
       0.00982191 -0.00434038 0.0027119517 0.0075621153
0000e0 c4 42 98 bb c4 48 bb 3a 97 1b 10 bc f8 91 a3 3b
       -0.004646631 0.0014288654 -0.00879564 0.004991766
0000f0 0c e3 e5 b9 b7 52 ee bb 60 b2 1a 3b ec 3a 56 ba
       -0.00043847447 -0.007273044 0.0023604855 -0.0008172232
000100 35 72 f6 39 c2 31 2d ba c4 04 6b b9 c0 c9 e5 b8
       0.00047005867 -0.0006606841 -0.00022413122 -0.0001095715
000110 3e 24 23 ba e9 0f 1d ba f8 11 72 38 40 5b ae 39
       -0.0006223357 -0.00059914455 5.771403e-05 0.00033255853
000120 50 f9 32 b9 d0 88 d4 b8 a0 59 e6 37 62 32 0f 38
       -0.00017068279 -0.00010134431 2.7459871e-05 3.414078e-05
000130 9b e1 92 38 97 56 ec 3a 43 db 60 39 0c da 2b 39
       7.003845e-05 0.0018031177 0.00021443986 0.0001638906
000140 66 4f ad b8 a2 45 3d 3a 7d 57 57 b9 80 c7 1c b9
       -8.264072e-05 0.0007220154 -0.0002053659 -0.00014951639
000150 08 eb 14 39 58 6b 4b 38 cd 2a 9b b9 78 24 3f b8
       0.00014201936 4.8498943e-05 -0.00029595793 -4.5571913e-05
000160 18 66 17 39 0a 4b 23 ba f8 0f 29 ba 64 4a b4 3a
       0.00014438515 -0.0006229138 -0.0006449218 0.001375508
000170 f1 fe a8 39 8e 8e 3a b9 00 d2 14 35 c0 2b 60 b9
       0.00032233403 -0.00017791448 5.5439887e-07 -0.00021378603
000180 22 c8 b2 ba 0c 89 a6 bb c4 02 9e bb f8 2a 89 ba
       -0.0013639966 -0.005082255 -0.004822107 -0.0010465076
000190 89 35 4b 3b 6a b3 ba ba cc fb 21 3b 30 c1 c8 b8
       0.0031007251 -0.0014244143 0.0024716733 -9.572727e-05
0001a0 a0 0f f0 37 30 7f ce 39 36 df 6a 3c c3 66 15 3c
       2.8617505e-05 0.00039386144 0.014335444 0.009118739
0001b0 b4 08 f0 3a af fb d7 ba 95 2e 29 bc db 5d a9 bb
       0.0018313141 -0.0016478206 -0.010326047 -0.005168659
0001c0 16 50 2a bc 00 a5 34 b9 80 e3 be ba e8 a8 81 ba
       -0.010395071 -0.00017227605 -0.001456365 -0.0009892257
0001d0 3b b2 65 3a 70 3f 6e 3b 4b fd 60 3b 90 12 0c bb
       0.0008762215 0.003635373 0.0034330662 -0.0021373369
0001e0 11 fe 20 3b 5b 02 07 3b 60 d0 3d bb 00 08 50 bb
       0.0024565498 0.002060077 -0.0028963313 -0.003174305
0001f0 c1 4b ae 3a 26 bf e4 39 78 9f d6 ba f3 88 04 ba
       0.0013297723 0.00043629966 -0.001637443 -0.00050558074
000200 00 9c a2 bb 99 0d c9 3c d8 a0 8c ba 16 25 82 3b
       -0.0049624443 0.024542617 -0.0010729088 0.003971706
000210 25 0e b7 bb 3f dc e3 bb d4 15 da b9 cb 94 06 3c
       -0.005586403 -0.0069537456 -0.00041596463 0.008214186
000220 dd 59 b7 3a 4b 6d 15 bc 2a 88 e9 bb 2e 57 87 3b
       0.0013988573 -0.009120296 -0.0071268277 0.0041302657
000230 1c 3b 16 ba f2 2a 98 bb ec 15 c3 ba c2 35 07 3b
       -0.0005730854 -0.0046437914 -0.0014883853 0.0020631407
000240 0f c4 69 bb fd a0 8c 3b 96 d1 19 bb fc 27 f5 39
       -0.0035669839 0.0042916522 -0.002347087 0.00046759832
000250 08 4d 2b 3b 2a fb f0 ba f0 6f 45 3b 67 52 37 bb
       0.0026138443 -0.00183854 0.0030126534 -0.00279727
000260 00 23 a6 b8 47 93 ec bb b0 b6 55 bb dc 15 f3 bb
       -7.922016e-05 -0.0072197053 -0.003261011 -0.0074183773
000270 3d d4 4e 3c 4c a4 54 39 57 46 31 bb 43 f0 25 3c
       0.012623844 0.00020279101 -0.0027049982 0.010128084
000280 90 27 dc 38 1a 83 d4 39 70 a9 8f 38 55 9f 9a ba
       0.000104977866 0.0004053347 6.8503316e-05 -0.0011796752
000290 da 2e fd b9 64 d8 a7 b8 d1 6d 17 3a 5c cf d5 39
       -0.00048290828 -8.0034864e-05 0.0005776557 0.0004078102
0002a0 a7 b2 75 b9 e0 a9 aa 39 84 9f a9 39 b4 e9 c0 39
       -0.00023431574 0.00032551493 0.0003235304 0.00036795216
0002b0 40 91 61 b9 3c ef 97 3a 6a 58 2a ba c0 25 0e b8
       -0.00021511782 0.0011591683 -0.000649816 -3.3890596e-05
0002c0 b4 c1 1a ba 98 6d 7d 39 41 62 9c b9 91 66 92 b9
       -0.0005903498 0.00024168787 -0.00029827844 -0.00027923708
0002d0 95 f1 52 ba ec 6e ca b9 09 86 39 3a a0 bb fa 39
       -0.0008046863 -0.00038611086 0.0007077163 0.00047823507
0002e0 10 7a 2e b9 58 1b 58 b9 d0 11 f5 b9 20 e7 e5 b8
       -0.00016639405 -0.00020609552 -0.00046743313 -0.00010962621
0002f0 e1 d0 05 ba 85 32 f8 3a d7 33 57 ba 00 6b 77 ba
       -0.0005104673 0.0018935954 -0.0008209324 -0.00094382465
000300 83 e7 01 b9 22 94 0e ba 4a 68 ed b9 c0 e9 dc b6
       -0.00012388644 -0.00054389436 -0.00045281864 -6.583723e-06
000310 f2 f7 ea b9 ad 9f db 39 a9 69 e1 39 60 d0 6e b9
       -0.00044816692 0.00041889903 0.00042994067 -0.00022775074
000320 36 54 41 b9 6f 94 03 39 a9 f2 12 3a 50 d4 fc 38
       -0.00018437285 0.0001254843 0.0005605617 0.00012055843
000330 c3 7c 1d 3a 49 50 a6 3a 60 63 85 38 d6 3a c9 38
       0.00060076657 0.0012688722 6.360444e-05 9.595386e-05
000340 90 28 54 ba 9c 5b 08 b9 f8 9c 9a 38 e6 51 a3 b9
       -0.00080932025 -0.00013004098 7.37253e-05 -0.00031150802
000350 7c 8e 3f 39 f6 fa 1f 3a 29 1f 9a b9 2c 4d 98 b9
       0.00018268259 0.0006102765 -0.00029396385 -0.00029049197
000360 38 69 3c 38 b5 44 12 ba 32 cb 9e b9 40 34 15 3a
       4.4920685e-05 -0.0005579696 -0.000302875 0.0005691685
000370 2f 38 b2 38 28 ec 2d b9 c4 18 f5 b9 bb 9e 64 ba
       8.4981664e-05 -0.00016586541 -0.00046748493 -0.00087211624
000380 40 51 03 38 70 f1 cd 3a 44 da 0b 3a 1a c5 a4 b9
       3.1308504e-05 0.0015712213 0.00053349533 -0.0003142737
000390 88 22 aa ba 80 85 23 3a 0f da f3 39 98 e6 f8 b9
       -0.0012980262 0.00062378496 0.00046511038 -0.00047474052
0003a0 3d 21 44 ba 84 be 14 b9 40 f2 3f b9 d0 2a 78 b9
       -0.00074817595 -0.00014185352 -0.00018305425 -0.00023667072
0003b0 50 5f 86 b8 c0 69 ac 38 18 61 9f 39 d7 99 04 3a
       -6.407371e-05 8.2212966e-05 0.00030399184 0.00050583243
0003c0 78 a9 b3 39 d0 37 f6 b8 80 51 9b b9 e0 24 24 b9
       0.00034267805 -0.0001174059 -0.00029624626 -0.00015653996
0003d0 30 79 c4 39 80 e8 52 b6 94 2b 32 39 70 f4 f9 37
       0.00037474325 -3.1427771e-06 0.00016991637 2.9796938e-05
0003e0 e0 5e 1e b9 40 03 94 39 54 77 cf b9 fe 47 b5 39
       -0.00015103398 0.0002823118 -0.00039571023 0.0003457665
0003f0 3f 43 49 3a 66 a8 fb b9 f8 24 13 bb 34 c2 80 ba
       0.0007677562 -0.00047999917 -0.0022452455 -0.0009823502

arith.constant5 f4 [32, 3, 3, 32]
000000 84 ef 03 bd dc 52 33 3c 55 75 1d bb 0e fd 2e bc
       -0.03221084 0.010945048 -0.0024026234 -0.01068045
000010 ec e1 4a bd 93 a6 13 bd e4 95 7d bb 1c 1a 83 3b
       -0.049531862 -0.03604753 -0.0038694078 0.004000915
000020 0c 76 8d bc bd f3 87 3a 7a 74 ea bc ec a6 43 bd
       -0.017268203 0.0010372322 -0.028619993 -0.04776661
000030 61 e5 13 bd 74 78 5d ba b4 cd 1b bd 5a ae 35 3c
       -0.036107425 -0.000844843 -0.03803797 0.011088932
000040 d2 f0 cb b9 09 23 95 3c d2 0a 85 bb 78 92 59 bd
       -0.00038898602 0.018205183 -0.004060128 -0.0531182
000050 39 36 3a 3b 2b a8 1d bd 20 12 9d 3c 5d 3f 1f 3d
       0.0028413667 -0.038490456 0.019173682 0.038878787
000060 b5 69 6b bc 5b e3 29 3c 14 7a 84 3c 18 9e d6 3c
       -0.014368464 0.010369147 0.016171493 0.026198432
000070 10 d1 c6 3a 52 d2 be 3c 76 2e 07 3d 77 68 36 3d
       0.0015168507 0.023293648 0.033003293 0.04453322
000080 a0 1c c9 3b ed de 7c 3c 6e e3 81 3d 42 cb 31 3c
       0.0061374456 0.015434009 0.06342207 0.010851683
000090 8a f9 9c 3d 6e 14 ee 3c 8e 6d 94 bd 7c e6 48 bd
       0.07664783 0.029062476 -0.072474584 -0.049047932
0000a0 88 7b bb bd 7c c4 3a bd 2a 43 51 3d 99 ba 05 3c
       -0.09154421 -0.04559754 0.051089443 0.008162164
0000b0 3f 68 8e 3d 28 24 5f ba e0 a8 d7 39 84 6a cd 3d
       0.06953477 -0.00085121626 0.00041133817 0.10030082
0000c0 24 6d 08 bd 92 e3 b2 bd 4d e3 70 bd 87 da 92 3c
       -0.03330721 -0.08734812 -0.05881052 0.017926468
0000d0 6c 1b bf 3d 1c de 2c 3e de 0f 15 bd a0 a2 df 3c
       0.09331402 0.16881603 -0.036392085 0.027299225
0000e0 6a 5d 45 bd cd 29 76 bd ea b0 10 bd 6e 75 8b bc
       -0.04818479 -0.060098458 -0.03532497 -0.017023768
0000f0 60 2f 6d 3d c7 43 4a bd a9 0d 69 3d 99 1e 60 bc
       0.05790651 -0.049381044 0.056897793 -0.01367917
000100 63 fe 84 bc 42 82 b3 bc 79 b3 5c bc aa be 87 bc
       -0.016234582 -0.021912698 -0.013470524 -0.016570408
000110 08 c6 b9 bc 00 02 6b b8 e9 fc cf bc 12 52 cb 3b
       -0.022677436 -5.603023e-05 -0.025389152 0.006204852
000120 a6 b2 e4 bc 58 e0 14 3c f8 7a dd 3b 80 39 80 38
       -0.027917217 0.009086691 0.006759044 6.114226e-05
000130 d1 a4 16 3d 4b 53 8f bc 5c 55 0b 3d 28 80 63 3d
       0.036778275 -0.017495772 0.034016952 0.05554214
000140 89 63 f4 3c 6e b1 a3 bc 36 35 51 bc 00 6b aa bc
       0.029832618 -0.019982066 -0.012769034 -0.020802975
000150 d6 1c c7 3c 48 8d 42 bc 9c 05 a4 3b 63 0c 3a bd
       0.024305742 -0.011874504 0.0050055515 -0.04542197
000160 db ec a4 3c 34 d0 16 3d 58 84 c5 3a 90 77 83 bc
       0.020132473 0.03681965 0.0015069349 -0.016048223
000170 ca 5a 99 ba 38 3a 70 bb a2 96 18 3a 4b 65 06 bc
       -0.0011700031 -0.0036655795 0.0005820786 -0.008202861
000180 56 b1 a4 bc 2a b7 94 3c 72 7d c4 bd b2 61 3d bd
       -0.020104092 0.018153746 -0.09594239 -0.046235748
000190 03 69 a2 3d 74 f4 87 3c dc b0 5a bb 9a d0 d1 bc
       0.07930186 0.016596057 -0.0033369577 -0.025612164
0001a0 3f 1c 75 bc a5 71 fc 3b 9d 68 20 3d ee 51 0f 3b
       -0.014960348 0.007703977 0.039162267 0.0021868902
0001b0 d8 e9 91 3d d5 11 c0 3b fc 15 2b 3d 80 01 9d b9
       0.0712468 0.0058615007 0.041769013 -0.0002994649
0001c0 76 cd 9d 3d 53 a5 3f bc d0 bf 7b 3d 1a 12 6c bd
       0.07705204 -0.011697131 0.061462224 -0.05763445
0001d0 cd 9f 22 3d d2 db 13 bc 6b 3f 9e bd 05 38 ad bd
       0.03970318 -0.009024577 -0.0772694 -0.084579505
0001e0 87 1a c9 bc 40 ce 9e 3b 15 04 37 3c a7 83 9f 3d
       -0.024548782 0.0048463643 0.011170407 0.077887826
0001f0 60 60 7e bd d5 15 9f bc 16 c1 93 3d 14 ff a1 bd
       -0.06210363 -0.01941959 0.072145626 -0.079099804
000200 40 eb 24 bd ac 19 20 be 6d 97 0c bd 78 f9 34 3e
       -0.040263414 -0.15634793 -0.0343241 0.1767329
000210 52 ca 51 bd 17 51 9d 3c 27 2d 49 3d d4 4f bc bd
       -0.05121834 0.019203706 0.049115326 -0.091949135
000220 2c 94 f1 bc c4 2f d1 3c 2b c9 2e 3e b0 b9 65 bd
       -0.0294896 0.025535472 0.17068927 -0.05608529
000230 1a 63 19 bd e9 03 ef 3b 20 3f 5f bd 0e 19 3b 3e
       -0.037448026 0.0072941673 -0.05450356 0.18271276
000240 e2 0c 12 3e 50 a3 c7 bc 91 30 a9 bd 18 2e 90 bd
       0.14262727 -0.024369866 -0.082612164 -0.07040042
000250 09 c6 df bc 0c 1d 35 3d ed 9a 04 be ac d4 70 3c
       -0.02731611 0.044217154 -0.12949724 0.014699142
000260 ae c3 af 3d d6 4e 08 3d b3 9c f9 bd e6 2b 30 3d
       0.08582245 0.03327831 -0.12188091 0.043010615
000270 50 d5 5b 3d c2 47 12 3c 0e 69 16 3e 99 04 30 bd
       0.053670228 0.008928241 0.14688513 -0.042973135
000280 8e f4 06 bc f0 ad ec 3c 5e ca 09 3c 90 16 d0 bc
       -0.008237017 0.028891534 0.0084100645 -0.025401384
000290 f2 69 08 bd 30 25 4e 3a 2a 5c 4b bd 75 86 d5 bb
       -0.033304162 0.0007863818 -0.04964844 -0.0065162727
0002a0 3e 41 6f bd ee 41 9f bb 50 fa 32 3d be 0e 91 3c
       -0.05841183 -0.0048601544 0.043695748 0.017707225
0002b0 74 65 ff 3a a3 ff 65 bc 30 12 0c ba 30 92 6e 3d
       0.0019485191 -0.014037999 -0.00053432863 0.058244884
0002c0 00 c0 8a bc 1c 97 6d bd 70 ef 68 3b 30 47 06 bb
       -0.016937256 -0.058005437 0.0035543106 -0.0020489208
0002d0 c6 a5 bc bb 05 cf e7 3c 70 f2 3e bd 08 40 4b 3d
       -0.0057570664 0.028296957 -0.046617925 0.04962161
0002e0 e6 32 63 bb 70 dc 14 ba 5a 93 28 3b 04 ea 03 bb
       -0.003466779 -0.00056785997 0.0025722594 -0.0020128498
0002f0 4e 5c 1f 3d 2f a2 f5 ba b0 27 01 bc fe 33 25 3c
       0.038906388 -0.0018740351 -0.007882997 0.010083197
000300 12 8b b7 b9 43 1c e0 3c 0c a8 65 3c 60 75 04 ba
       -0.00035008095 0.027357226 0.014017116 -0.00050528906
000310 cf 79 93 3c ec d9 3d bc 55 f4 c6 bc 3a ec bd 3c
       0.018002419 -0.011587601 -0.024286428 0.02318393
000320 e8 de 39 bb 68 cb aa bc 3e 8d d9 3c 94 18 b5 3b
       -0.0028361622 -0.020848945 0.026556607 0.0055266116
000330 f2 ea 27 3d ff 72 40 3b bc f5 12 3c 78 f4 6b 3c
       0.040995546 0.0029365418 0.00896972 0.014401548
000340 e0 f3 71 3b 3a 96 92 bc 0e e8 14 3c 87 e0 df bc
       0.0036919042 -0.0178939 0.009088529 -0.027328743
000350 82 b2 24 bc 18 ce 06 bc 98 b8 ec ba 95 66 3c 3b
       -0.010052325 -0.0082278475 -0.0018060384 0.0028747667
000360 16 f8 79 3c ac f0 4f bc 2b 01 a4 3c f0 0b 96 bc
       0.015256902 -0.012691658 0.020020088 -0.01831624
000370 8e 76 66 3c 33 41 76 bb 24 a7 43 3c fa e1 f6 bb
       0.014066352 -0.0037575483 0.011941705 -0.0075342627
000380 2a 29 16 bc ae 90 d4 bc f0 a7 07 bc 8e 12 60 3d
       -0.009165088 -0.025947895 -0.0082797855 0.054705195
000390 05 8a 93 3b cb eb ef bb 38 79 ff ba 82 8d e4 3b
       0.004502537 -0.00732181 -0.0019491082 0.006974877
0003a0 78 6b 60 bb 80 8b f1 38 26 a0 42 bd 5e 4c 3e 3c
       -0.0034243744 0.000115177594 -0.04751601 0.011614887
0003b0 b7 d7 7d 3c bf b2 9e ba 77 05 fb bc 28 1f 61 bc
       0.015493325 -0.0012107714 -0.030642254 -0.013740338
0003c0 28 cc 3c 3c 4e 0b e1 bb 56 8d 88 3c b2 e0 88 bc
       0.011523284 -0.0068678027 0.016668957 -0.016708706
0003d0 84 b3 38 ba ba c6 8b bb 68 64 69 bc a6 2d a7 bc
       -0.0007045793 -0.0042656334 -0.01424513 -0.020407509
0003e0 8d b3 a9 bc 49 88 f4 bb c4 7e b5 bd fc 7c ca bc
       -0.0207155 -0.0074625355 -0.08862069 -0.0247178
0003f0 ba 64 74 bc 30 33 0f 3c be af f3 3c 70 e8 61 3c
       -0.014916593 0.008740231 0.029746886 0.013788328

arith.constant6 f4 [32, 3, 3, 32]
000000 81 cf a3 bb 72 e3 88 3b a8 b0 09 bd 5c 3a 80 3a
       -0.0049991016 0.004177504 -0.03361574 0.0009783017
000010 c0 81 f9 3d 08 e0 3d ba 6c 60 e5 bd 36 da 7a 3d
       0.12182951 -0.0007243161 -0.11200032 0.06124326
000020 55 dc e2 3b 0f c5 e6 3b 31 1a e3 bc cd fe f8 bc
       0.0069232383 0.007042534 -0.02772245 -0.030394936
000030 17 55 60 3c f8 c9 b5 3a 4a 85 53 bc 38 55 86 ba
       0.013692162 0.0013869395 -0.012910197 -0.0010248786
000040 24 2b 7a bc 66 7c 12 3c a2 06 93 bd 98 fc 6a 3d
       -0.015269075 0.008940792 -0.071789995 0.0573698
000050 0e 17 fc bb a4 a7 20 3d 99 76 84 3c 54 00 8e 3b
       -0.007693178 0.039222375 0.016169833 0.004333535
000060 b4 7d 3b bc a5 cb a2 bc 6d 32 fc bb 50 4d e5 3c
       -0.011443544 -0.019872496 -0.007696441 0.027990967
000070 d2 d6 ca bc 4e 95 fe 3c 02 bd 9a bc 8b 6f 17 bd
       -0.024760637 0.031077053 -0.018888954 -0.03697161
000080 44 a8 91 bc 5c 28 86 bc 60 a4 6a bc 48 b5 3f 3d
       -0.01778043 -0.016376667 -0.014321417 0.046803743
000090 ed 70 30 3e 8d 1e 5d bd a6 77 99 bd 19 c5 ac 3d
       0.17230578 -0.053984214 -0.07493524 0.08436031
0000a0 d0 82 7e 3d bb 57 16 bd f1 2c 48 bd 95 9f 15 3d
       0.06213647 -0.03670476 -0.048870984 0.036529142
0000b0 4a 77 4d 3c df 4e 94 3c 0c 4d 5c bc 7e f3 4b bd
       0.012540648 0.018104015 -0.013446104 -0.04979276
0000c0 4a 90 63 3d af 3d db 3d ec e9 01 be 76 7c ab 3c
       0.055557527 0.107051246 -0.1268689 0.020933371
0000d0 4f eb 11 3c 69 2d 19 3e fc 38 77 3c 8c d2 32 3d
       0.0089062 0.14958729 0.01508927 0.043657824
0000e0 b9 f8 bf 3d 2c 72 53 bd f3 6d 06 bc 9b c7 8c bc
       0.09373612 -0.051622555 -0.008204925 -0.017185023
0000f0 70 fa dc bd d0 42 79 bd 71 d2 4b bc 20 71 55 3d
       -0.10789955 -0.060854733 -0.01244031 0.052109838
000100 08 43 4c 3d 91 36 25 bc 7e 3a d2 bc bc cc 3c 3d
       0.049868613 -0.01008381 -0.025662657 0.046093687
000110 41 c9 2c 3d a0 83 ee bb 3e 24 a4 bd c2 7a f3 3d
       0.04218412 -0.0072788745 -0.08014725 0.118886486
000120 be ee 79 3c b6 9d 09 bc 28 af 76 3a e8 85 7b bb
       0.0152546745 -0.008399418 0.00094102556 -0.0038379375
000130 df c3 27 bd c0 21 db 39 40 3d 05 3c 71 bf 5e bd
       -0.04095828 0.0004179608 0.008132279 -0.05438179
000140 80 d8 1f 38 2e df d1 3d 69 0c c8 bd 5f e4 8d 3d
       3.8110185e-05 0.10247646 -0.09767992 0.06928324
000150 48 b0 08 bd 44 ad 20 3d d2 5f 0c 3c ce 1b c8 bc
       -0.03337124 0.03922774 0.008567767 -0.02442732
000160 a7 d1 54 3c c6 35 f2 bd de db 0f bd a4 d3 19 bd
       0.012989438 -0.11826663 -0.03512179 -0.03755535
000170 18 4b 71 3b 6a 27 9b 3c d9 00 14 3b 30 29 4e ba
       0.003681844 0.018939693 0.0022583513 -0.0007864414
000180 f4 75 1e 3c 38 ba 84 3d b9 88 8e 3c 27 eb 8d bd
       0.009671677 0.06480831 0.017399179 -0.069296174
000190 00 f6 91 3c 1e 73 53 bd a9 32 be bd c4 39 9a 3d
       0.017817497 -0.051623456 -0.092870064 0.07530549
0001a0 ab 72 38 3c 64 32 ce 3c 22 cc ee bb c5 30 85 3c
       0.011257808 0.025170512 -0.007287518 0.016258607
0001b0 90 42 ca 3d 6b f9 87 bc e0 f2 b3 bb 02 f4 87 bc
       0.09875977 -0.016598424 -0.0054915994 -0.016595844
0001c0 0c b3 89 bd 72 a9 37 bc de 49 b7 bd 29 26 f0 3b
       -0.067236036 -0.0112098325 -0.08949636 0.007328768
0001d0 1d 73 a9 bb d2 18 3f 3e 34 79 a2 3c aa 9d 82 3d
       -0.0051711933 0.18661812 0.019833185 0.06377728
0001e0 f9 10 1e 3d e6 be 5b bd 89 d5 4c bd f6 bd f5 3c
       0.038590405 -0.05364885 -0.05000833 0.029997807
0001f0 f4 95 0d 3d a4 67 c1 3c 56 15 78 bd 0c c0 22 bd
       0.034566835 0.02360899 -0.060567223 -0.03973393
000200 00 34 7b 3b aa 2c 16 3c 22 a3 c7 3d 1c bc f0 3d
       0.0038330555 0.009165922 0.09747912 0.11754629
000210 53 bb f1 3d fa a8 52 be cd 55 f5 bd 7e 4e c5 be
       0.118033074 -0.20572272 -0.11979256 -0.38536447
000220 7a 79 f2 3e d6 40 bf bd 6a cc 0a be 99 9a 33 3e
       0.47358304 -0.09338538 -0.1355454 0.17539443
000230 76 ff 67 3e bc 90 82 3d 12 af 01 3d 8b 2b 76 be
       0.22656044 0.06375262 0.0316611 -0.24040048
000240 d2 86 96 3e 04 ad 0b 3e 1b 09 e7 3e ea 44 a3 be
       0.29399735 0.13640219 0.45124134 -0.31888515
000250 20 49 a6 bd 92 7e a5 bc 8c d3 06 3e 3a b1 a3 3c
       -0.08119416 -0.020201955 0.13166636 0.01998197
000260 3d f0 0a 3d 93 23 2c 3d 39 c5 b8 bc 00 06 82 bc
       0.033920515 0.042026114 -0.02255498 -0.015872002
000270 88 11 90 bb 21 b3 0a bb 25 f6 25 be fe cc de bd
       -0.004396621 -0.0021163898 -0.16207178 -0.10878943
000280 50 21 52 3e 5e f6 53 bd 71 fe 01 bd 6d 3a fc 3d
       0.2052052 -0.051748626 -0.031736795 0.12315831
000290 fa c8 c0 3d 50 f8 19 3b 5e 03 98 bd 33 b6 40 3e
       0.09413333 0.0023493953 -0.07422517 0.18819503
0002a0 f4 35 e2 3d 90 df 6f bc 92 91 27 bd c7 77 66 3d
       0.11045447 -0.014640704 -0.04091031 0.056266572
0002b0 39 73 10 3c 70 e1 4b 3a 63 1c 61 3d 10 49 8f bd
       0.008816534 0.0007777428 0.054958712 -0.069963574
0002c0 6e 9a ec bb 50 dc 5b 3f ac 76 00 bd a8 f4 95 bb
       -0.007220558 0.85883045 -0.031363174 -0.0045762844
0002d0 ab ce 12 3d 04 98 ac 3d 7e b2 99 3d 2c bb 55 be
       0.035841625 0.08427432 0.07504748 -0.20872182
0002e0 83 2f f7 bc 3e ec ed bd 01 67 84 bd d0 e4 6a bc
       -0.030174023 -0.11617325 -0.06464959 -0.01433678
0002f0 9a 45 56 bd 6f 3c 3c bd 48 c9 bc 3c cc c5 24 bd
       -0.05231247 -0.04595607 0.023045197 -0.040227696
000300 bd c7 97 3b 2a 9d dd bc 48 c7 87 3c ad 6c 95 bc
       0.004631965 -0.02705248 0.016574517 -0.018240297
000310 5c 60 9f 3c 86 a5 71 bd 9c 24 b7 bd 1c 67 66 3c
       0.019455127 -0.058995746 -0.089425296 0.014062669
000320 fe 34 19 3d 2a fa 42 3c aa 6c 9d bb 38 b6 0a 3d
       0.037404053 0.011900464 -0.0048042135 0.033865184
000330 e4 e7 0b 3c a7 e9 14 bd 8f bf c5 bb 2a 66 9f bc
       0.008539174 -0.03635564 -0.0060347985 -0.019457895
000340 a8 86 27 bb 0e fd 21 bc cf 92 cb bd dd 81 c7 3c
       -0.002556244 -0.009886993 -0.09940111 0.024353916
000350 99 7d 31 bd db f3 a0 3d b6 4d aa 3c 75 96 d3 3d
       -0.04333267 0.07859012 0.020789009 0.10331432
000360 7c d7 06 bd cc 14 63 bb 5e 77 66 bc 3e db ae 3c
       -0.032920346 -0.0034649847 -0.014066545 0.021344777
000370 ac a0 ca 3b e9 5e e8 3c 3f e0 e8 bc 77 e4 75 bd
       0.0061837044 0.02836557 -0.028427241 -0.060032334
000380 c4 61 c2 bc 73 05 11 3e c5 05 2c 3d 3b 85 09 bd
       -0.023728259 0.14162235 0.04199769 -0.033574324
000390 3e 42 89 3c d6 65 df bd 50 e4 0a bd e4 3a 8b 3d
       0.01675522 -0.109080955 -0.033909142 0.06798342
0003a0 6a a9 90 3d 40 25 c2 39 63 1d ca bb 70 a7 c4 3d
       0.07063563 0.00037030317 -0.006168054 0.09602249
0003b0 fe 7b 70 3d d4 c7 0c be 96 0e d0 bc dc 52 e2 bc
       0.058712 -0.13748103 -0.02539758 -0.027627401
0003c0 9d 3d 4c 3e 98 00 52 bd 04 f7 44 be 80 05 88 3a
       0.19945379 -0.051270097 -0.19234854 0.0010377616
0003d0 e1 c8 3c bd 8a e6 61 3e ae 67 db 3e 96 b3 3c 3e
       -0.04609001 0.220606 0.4285254 0.18427882
0003e0 2b 6a 61 3c 1e 98 86 bd 0c eb 66 be d0 42 e1 bd
       0.013758223 -0.06571983 -0.22550601 -0.109990716
0003f0 a2 c1 8b bc 94 49 ce 3b 3d a5 b7 bd 1e ff 8e bd
       -0.017060105 0.0062953923 -0.089670636 -0.069822535

arith.constant7 f4 [32, 3, 3, 12]
000000 f0 9f 86 be 23 10 3f 3e f6 d5 3d be dc 89 3a 3f
       -0.26293898 0.186585 -0.18538651 0.72866607
000010 bc 29 93 bf 64 6f b3 3e 13 b0 24 be 16 99 8a 3e
       -1.1497111 0.35045922 -0.16082792 0.2706992
000020 18 b4 17 3f f0 54 8d 3d af 1d 89 be a2 02 8f 3d
       0.59259176 0.06900966 -0.2678046 0.06982924
000030 a8 21 2a be 9e f3 20 3f c8 e3 df be f3 eb bd be
       -0.16614401 0.6287173 -0.4372847 -0.37094077
000040 0a 26 4d bf 88 73 cb bd 12 58 e5 3e 38 97 0d 3f
       -0.8013617 -0.09934145 0.44793755 0.55308867
000050 60 5b a4 3e cb 3d 1e be 78 62 6c bd 9c 09 ec 3d
       0.32100964 -0.1545326 -0.057711095 0.1152527
000060 98 9e dd 3e d5 41 97 be 08 b5 73 3e ee e9 1b bd
       0.4328506 -0.29542413 0.23799527 -0.03806489
000070 6c 8d 42 bd d7 3f eb be 08 f9 d6 3d b5 81 98 be
       -0.04749815 -0.45947143 0.10496718 -0.2978646
000080 5e 4a 26 bf 74 c1 1f 3f d7 b4 d3 3d 1d 1f d7 3e
       -0.64957225 0.6240456 0.10337227 0.42015925
000090 4e 33 9d bd 02 00 0d 40 e6 ac a1 bf cc 09 f3 c0
       -0.07675801 2.2031255 -1.263089 -7.594946
0000a0 8b 0d fb 3e 59 1b 2b c0 92 47 2a c0 18 ab 6e c1
       0.4903377 -2.6735442 -2.6606183 -14.916771
0000b0 a1 81 53 be f8 08 8c 3f 80 21 21 40 56 6b b3 c0
       -0.20654918 1.0940237 2.5176697 -5.6068525
0000c0 b4 11 15 bf 00 95 46 be 2c 2a 2c 41 aa 57 4e c0
       -0.5823014 -0.19392776 10.760296 -3.2241006
0000d0 9d 54 c2 3e d1 10 3d 3f fd 39 ad 41 60 24 16 c0
       0.3795518 0.73853785 21.653315 -2.3459702
0000e0 10 3c a3 bf 42 40 2e 3f 60 5c 4c 40 6e 4d 80 3e
       -1.2752705 0.680668 3.1931381 0.25059074
0000f0 8f e9 93 be 5a 37 51 3f c8 c3 bd be 3d 27 0b be
       -0.2888913 0.81725085 -0.37063432 -0.13589187
000100 20 f3 f3 3d d9 5a 56 bf 26 d0 34 40 c8 b6 7f bf
       0.11911607 -0.8373237 2.8252044 -0.9988828
000110 45 56 10 bf 12 fe 13 bf ac 8a 1b 3d b0 0f 92 3e
       -0.56381637 -0.57809556 0.037974045 0.28527594
000120 ae 6d f6 be fe 06 96 bf 79 2a 51 bf 0d 4b 75 3f
       -0.48130554 -1.1720884 -0.81705433 0.95817643
000130 6e 3c db 3f 4e d2 73 c0 1f be 16 bf bc ca 55 3f
       1.7127817 -3.809711 -0.5888385 0.83512473
000140 f6 99 07 3f 2e 11 2e bf c6 cc df bc e5 d7 8a 3e
       0.529693 -0.67994964 -0.027319323 0.2711784
000150 54 e6 f5 3f 88 3b 25 3d be aa 1c be 9a 82 a3 be
       1.9210916 0.040339977 -0.15299508 -0.3193558
000160 22 15 5d 40 60 d2 cc bd 93 02 0c c0 d4 a2 17 3f
       3.4544148 -0.10001063 -2.187657 0.5923283
000170 34 31 9d bf 16 82 1f 3f e5 12 0e bf e4 4c b9 3f
       -1.2280641 0.6230787 -0.5549758 1.447659
000180 81 00 16 bf 62 e2 4a 3f 7d f1 bd be 3c 74 fe 3d
       -0.5859452 0.7925168 -0.37098303 0.12424514
000190 24 a3 19 3f b4 f5 26 bf 87 11 45 3e fc 90 34 bf
       0.6001456 -0.65218663 0.19244967 -0.7053373
0001a0 dd da 81 bf c0 0e bb 3b 3c 6c b4 3e 92 de 2a 3f
       -1.0144917 0.0057085454 0.35238826 0.66745865
0001b0 34 5f 8f bf 78 b8 56 3f 4a d5 81 bd df c3 9a bf
       -1.1200929 0.83875227 -0.0633951 -1.2091025
0001c0 fe 86 e3 bd fa 64 47 40 28 70 6f 3f fe 0c 62 c0
       -0.11109732 3.1155381 0.9353051 -3.532043
0001d0 5f 50 e2 3d c3 05 e4 bf dd cc 1b bf 28 60 ad 3f
       0.11050486 -1.7814258 -0.6085947 1.354497
0001e0 27 b5 ad bf cf a6 88 3e 62 a3 22 c1 f1 a0 35 c0
       -1.3570908 0.26689765 -10.164888 -2.837948
0001f0 da dd 3f bf 69 86 90 3d f1 c4 8d c1 60 12 a7 c0
       -0.74947894 0.07056887 -17.721163 -5.220993
000200 48 5d bb 3f e0 19 05 bf f4 07 bc be 54 45 12 40
       1.4637842 -0.5199261 -0.36724818 2.2854815
000210 f0 92 bb 3f 32 a1 14 bf d3 ee 3c 3f c0 46 ac bc
       1.4654217 -0.58058465 0.73801917 -0.02102983
000220 a5 e2 f1 be ed 3a 1c bf 91 1b 01 3f 77 10 34 3f
       -0.4724323 -0.61027414 0.5043269 0.70337623
000230 7c 30 f8 bf 4f 8e 11 3f 18 01 1e bf 27 a3 06 be
       -1.9389796 0.5685777 -0.6172042 -0.13148175
000240 9c 4e 92 3f 86 43 c2 3f 9e fd 15 be 0b a8 10 bf
       1.143024 1.5176857 -0.14647529 -0.56506413
000250 48 96 6f bf 2e 3c fe 3f 34 67 be be 2b 1b 92 bf
       -0.93588686 1.9862115 -0.37188113 -1.1414541
000260 a7 f3 64 bf ea d6 b7 bf 37 39 95 3f f8 84 18 40
       -0.89434284 -1.4362462 1.1658086 2.3831158
000270 73 52 21 41 c1 1c 2e 40 28 11 95 3f ec 8e de bd
       10.082629 2.720505 1.1645861 -0.10867104
000280 5d 3a 9b 41 f2 77 ed 40 42 0a 51 3e 62 68 9f bf
       19.403498 7.420892 0.2041407 -1.245373
000290 bf 13 cd bf c4 91 94 bf 84 00 bc bf 16 75 19 bf
       -1.6021651 -1.1606984 -1.4687657 -0.59944284
0002a0 7e 84 8f bf 83 8b 11 3d 26 ba ed be 49 bc 7a be
       -1.1212308 0.03553344 -0.46431082 -0.24485888
0002b0 5c e0 0a 3f 56 05 c4 be 22 43 2b bf f8 c7 b2 be
       0.54248595 -0.3828532 -0.6689931 -0.3491819
0002c0 fa 8f e0 3e 5a fc 23 3f fc f4 a4 3f e9 00 23 3f
       0.43859845 0.6405693 1.2887263 0.63673264
0002d0 3e bc aa 3e 70 57 63 bf 9a 28 b4 be 77 d1 57 bd
       0.33346742 -0.88805294 -0.35187227 -0.052689996
0002e0 4e 00 f9 3e bc 1e e0 be 44 69 2d 3e 41 cc 80 3d
       0.48633045 -0.43773448 0.16934687 0.06288958
0002f0 af 30 3f bf cf b2 10 3f 71 05 2e 3e aa 9d 7f bd
       -0.7468366 0.5652284 0.16994263 -0.06240622
000300 14 98 90 3f fb e1 a7 be 3a 26 97 3e 53 6a ef be
       1.129641 -0.32789597 0.29521352 -0.46760806
000310 96 77 09 3f 97 4b 4d bf a5 e8 bc be 38 03 37 bf
       0.536981 -0.80193466 -0.36896244 -0.71489286
000320 8c 76 d5 bd 86 96 4d 3f d2 d9 94 3e 93 7d 2f 3f
       -0.10423002 0.80307806 0.29072434 0.68550986
000330 5e be 4e 3f 5a 59 62 3e 77 c2 f5 3e ab 49 5d bf
       0.8075923 0.22104397 0.47999927 -0.86440533
000340 3f 40 14 3e 7e ec 3f 3e 36 27 0e be 9f e5 81 3e
       0.14477633 0.18742558 -0.13882145 0.253705
000350 60 a1 63 be 2e 0f 2f bf c7 e3 08 bf be 6c 23 3f
       -0.22229528 -0.6838254 -0.5347256 0.638378
000360 68 e7 ad 3f cb 3d 2f bf 62 e2 1c 3e 96 77 f0 bf
       1.3586245 -0.68453664 0.15320733 -1.8786495
000370 01 b5 3c bf 12 93 bd bf dc 78 41 3e fa eb f2 3e
       -0.7371369 -1.4810507 0.1889376 0.4744566
000380 bf 00 43 be 7c 20 44 3f 57 90 63 be a8 27 40 3f
       -0.19043253 0.7661207 -0.2222303 0.7506051
000390 78 43 d2 3f 24 9d f9 3d 3e a7 27 bd 2a dc 79 3f
       1.642684 0.12188175 -0.04093098 0.9760157
0003a0 9b b2 81 3f ec 62 ed bf a4 6b 0f 40 14 96 09 c0
       1.0132631 -1.8545814 2.2409449 -2.149785
0003b0 2f 2b da be 5c 14 a0 be 03 c6 f6 bf 51 b4 08 3f
       -0.4261107 -0.31265533 -1.9279178 0.5340014
0003c0 19 0c 60 bf 7e c1 3b 3e 47 e1 ae 3e 46 c8 b3 bf
       -0.8751846 0.1833553 0.34156248 -1.4045494
0003d0 28 44 d2 3f 76 e6 5f 3e 20 86 8b 3f 8c b9 32 be
       1.642705 0.21865258 1.0900307 -0.17453593
0003e0 fe 39 98 be ee 50 26 be cc c1 0d bf 5c fb bd 3f
       -0.29731745 -0.1624181 -0.55373836 1.4842334
0003f0 17 13 0a 3f cb ac 28 c0 66 69 2e 3f 2a 40 66 40
       0.5393538 -2.6355464 0.68129575 3.5976663
